Model: "sequential"
_________________________________________________________________
Layer (type)                 Output Shape              Param #   
=================================================================
conv2d (Conv2D)              (None, 32, 32, 32)        896       
_________________________________________________________________
batch_normalization (BatchNo (None, 32, 32, 32)        128       
_________________________________________________________________
gaussian_noise (GaussianNois (None, 32, 32, 32)        0         
_________________________________________________________________
activation (Activation)      (None, 32, 32, 32)        0         
_________________________________________________________________
conv2d_1 (Conv2D)            (None, 32, 32, 32)        9248      
_________________________________________________________________
batch_normalization_1 (Batch (None, 32, 32, 32)        128       
_________________________________________________________________
gaussian_noise_1 (GaussianNo (None, 32, 32, 32)        0         
_________________________________________________________________
activation_1 (Activation)    (None, 32, 32, 32)        0         
_________________________________________________________________
max_pooling2d (MaxPooling2D) (None, 16, 16, 32)        0         
_________________________________________________________________
conv2d_2 (Conv2D)            (None, 16, 16, 32)        9248      
_________________________________________________________________
batch_normalization_2 (Batch (None, 16, 16, 32)        128       
_________________________________________________________________
gaussian_noise_2 (GaussianNo (None, 16, 16, 32)        0         
_________________________________________________________________
activation_2 (Activation)    (None, 16, 16, 32)        0         
_________________________________________________________________
conv2d_3 (Conv2D)            (None, 16, 16, 32)        9248      
_________________________________________________________________
batch_normalization_3 (Batch (None, 16, 16, 32)        128       
_________________________________________________________________
gaussian_noise_3 (GaussianNo (None, 16, 16, 32)        0         
_________________________________________________________________
activation_3 (Activation)    (None, 16, 16, 32)        0         
_________________________________________________________________
max_pooling2d_1 (MaxPooling2 (None, 8, 8, 32)          0         
_________________________________________________________________
conv2d_4 (Conv2D)            (None, 8, 8, 64)          18496     
_________________________________________________________________
batch_normalization_4 (Batch (None, 8, 8, 64)          256       
_________________________________________________________________
gaussian_noise_4 (GaussianNo (None, 8, 8, 64)          0         
_________________________________________________________________
activation_4 (Activation)    (None, 8, 8, 64)          0         
_________________________________________________________________
conv2d_5 (Conv2D)            (None, 8, 8, 64)          36928     
_________________________________________________________________
batch_normalization_5 (Batch (None, 8, 8, 64)          256       
_________________________________________________________________
gaussian_noise_5 (GaussianNo (None, 8, 8, 64)          0         
_________________________________________________________________
activation_5 (Activation)    (None, 8, 8, 64)          0         
_________________________________________________________________
max_pooling2d_2 (MaxPooling2 (None, 4, 4, 64)          0         
_________________________________________________________________
conv2d_6 (Conv2D)            (None, 4, 4, 64)          36928     
_________________________________________________________________
batch_normalization_6 (Batch (None, 4, 4, 64)          256       
_________________________________________________________________
gaussian_noise_6 (GaussianNo (None, 4, 4, 64)          0         
_________________________________________________________________
activation_6 (Activation)    (None, 4, 4, 64)          0         
_________________________________________________________________
conv2d_7 (Conv2D)            (None, 4, 4, 64)          36928     
_________________________________________________________________
batch_normalization_7 (Batch (None, 4, 4, 64)          256       
_________________________________________________________________
gaussian_noise_7 (GaussianNo (None, 4, 4, 64)          0         
_________________________________________________________________
activation_7 (Activation)    (None, 4, 4, 64)          0         
_________________________________________________________________
max_pooling2d_3 (MaxPooling2 (None, 2, 2, 64)          0         
_________________________________________________________________
flatten (Flatten)            (None, 256)               0         
_________________________________________________________________
dense (Dense)                (None, 512)               131584    
_________________________________________________________________
batch_normalization_8 (Batch (None, 512)               2048      
_________________________________________________________________
gaussian_noise_8 (GaussianNo (None, 512)               0         
_________________________________________________________________
dropout (Dropout)            (None, 512)               0         
_________________________________________________________________
activation_8 (Activation)    (None, 512)               0         
_________________________________________________________________
dense_1 (Dense)              (None, 2)                 1026      
_________________________________________________________________
activation_9 (Activation)    (None, 2)                 0         
=================================================================
Total params: 294,114
Trainable params: 292,322
Non-trainable params: 1,792
_________________________________________________________________
-----------------------------------------------------------------
MÁS DETALLES:
- Versión de https://pdfs.semanticscholar.org/d0eb/3fd1b1750242f3bb39ce9ac27fc8cc7c5af0.pdf
- Versión de la CNN-I del paper
…
